=== Model Summary ===
Model: "functional"
┌─────────────────────┬───────────────────┬────────────┬───────────────────┐
│ Layer (type)        │ Output Shape      │    Param # │ Connected to      │
├─────────────────────┼───────────────────┼────────────┼───────────────────┤
│ user_input          │ (None, 1)         │          0 │ -                 │
│ (InputLayer)        │                   │            │                   │
├─────────────────────┼───────────────────┼────────────┼───────────────────┤
│ movie_input         │ (None, 1)         │          0 │ -                 │
│ (InputLayer)        │                   │            │                   │
├─────────────────────┼───────────────────┼────────────┼───────────────────┤
│ mlp_user_embedding  │ (None, 1, 50)     │     30,500 │ user_input[0][0]  │
│ (Embedding)         │                   │            │                   │
├─────────────────────┼───────────────────┼────────────┼───────────────────┤
│ mlp_movie_embedding │ (None, 1, 50)     │    486,200 │ movie_input[0][0] │
│ (Embedding)         │                   │            │                   │
├─────────────────────┼───────────────────┼────────────┼───────────────────┤
│ flatten_2 (Flatten) │ (None, 50)        │          0 │ mlp_user_embeddi… │
├─────────────────────┼───────────────────┼────────────┼───────────────────┤
│ flatten_3 (Flatten) │ (None, 50)        │          0 │ mlp_movie_embedd… │
├─────────────────────┼───────────────────┼────────────┼───────────────────┤
│ genre_input         │ (None, 20)        │          0 │ -                 │
│ (InputLayer)        │                   │            │                   │
├─────────────────────┼───────────────────┼────────────┼───────────────────┤
│ concatenate         │ (None, 120)       │          0 │ flatten_2[0][0],  │
│ (Concatenate)       │                   │            │ flatten_3[0][0],  │
│                     │                   │            │ genre_input[0][0] │
├─────────────────────┼───────────────────┼────────────┼───────────────────┤
│ dense (Dense)       │ (None, 128)       │     15,488 │ concatenate[0][0] │
├─────────────────────┼───────────────────┼────────────┼───────────────────┤
│ gmf_user_embedding  │ (None, 1, 50)     │     30,500 │ user_input[0][0]  │
│ (Embedding)         │                   │            │                   │
├─────────────────────┼───────────────────┼────────────┼───────────────────┤
│ gmf_movie_embedding │ (None, 1, 50)     │    486,200 │ movie_input[0][0] │
│ (Embedding)         │                   │            │                   │
├─────────────────────┼───────────────────┼────────────┼───────────────────┤
│ dropout (Dropout)   │ (None, 128)       │          0 │ dense[0][0]       │
├─────────────────────┼───────────────────┼────────────┼───────────────────┤
│ flatten (Flatten)   │ (None, 50)        │          0 │ gmf_user_embeddi… │
├─────────────────────┼───────────────────┼────────────┼───────────────────┤
│ flatten_1 (Flatten) │ (None, 50)        │          0 │ gmf_movie_embedd… │
├─────────────────────┼───────────────────┼────────────┼───────────────────┤
│ dense_1 (Dense)     │ (None, 64)        │      8,256 │ dropout[0][0]     │
├─────────────────────┼───────────────────┼────────────┼───────────────────┤
│ multiply (Multiply) │ (None, 50)        │          0 │ flatten[0][0],    │
│                     │                   │            │ flatten_1[0][0]   │
├─────────────────────┼───────────────────┼────────────┼───────────────────┤
│ dropout_1 (Dropout) │ (None, 64)        │          0 │ dense_1[0][0]     │
├─────────────────────┼───────────────────┼────────────┼───────────────────┤
│ concatenate_1       │ (None, 114)       │          0 │ multiply[0][0],   │
│ (Concatenate)       │                   │            │ dropout_1[0][0]   │
├─────────────────────┼───────────────────┼────────────┼───────────────────┤
│ dense_2 (Dense)     │ (None, 1)         │        115 │ concatenate_1[0]… │
└─────────────────────┴───────────────────┴────────────┴───────────────────┘
 Total params: 1,057,259 (4.03 MB)
 Trainable params: 1,057,259 (4.03 MB)
 Non-trainable params: 0 (0.00 B)
=====================

Epoch 1
 - loss: 1.1721
 - mae: 0.8285
 - mse: 1.1721
 - val_loss: 0.7660
 - val_mae: 0.6751
 - val_mse: 0.7660
 - learning_rate: 0.0010

Epoch 2
 - loss: 0.7671
 - mae: 0.6835
…
